tests/system_tests/artifacts/networks/mnist_relu_3_50.onnx (onnx, 169880 bytes, 6 tensors)

2.0.bias f4 [50]
000000 9c c3 4a be aa 74 70 3d 08 19 55 3e e7 df c3 3e
       -0.19801182 0.05870501 0.2081033 0.3825676
000010 4a 1d 16 3e 98 72 cf 3d 4f be 3b 3e 56 e4 27 3e
       0.1465961 0.10129279 0.18334316 0.16395697
000020 2f 89 be 3d a8 dd 8c 3d 55 2a 18 bd 71 fc 73 bd
       0.093035094 0.06878215 -0.037149746 -0.05956692
000030 3a 0b 06 be e5 b2 13 3d 4f 65 af 3e f5 8a 45 3d
       -0.1309022 0.03605928 0.3425698 0.048228223
000040 0f 8b c7 3d 7c 37 0c be 10 b8 10 3e 87 49 4b 3e
       0.0974332 -0.1369304 0.14132714 0.19852267
000050 e6 81 10 3e 8b 8b 43 3e a9 fb 4f 3e 60 72 22 3e
       0.14112052 0.190962 0.20310844 0.15863943
000060 1c 51 bd 3d b6 08 a9 3b 7e 90 b8 3e 0a 80 d4 3d
       0.09243986 0.005158509 0.3604774 0.10375984
000070 d6 81 83 3e 31 35 d3 3d a8 65 0a 3c 5a 9d 96 3b
       0.25684994 0.1031288 0.008447088 0.0045963945
000080 10 c4 2e b9 d5 65 42 3e 85 ff 8c be de 37 02 3e
       -0.00016666972 0.18984158 -0.27538696 0.12716624
000090 cd 3b 0a 3e 20 c2 7b 3e 91 8a 8e 3d f8 79 79 3d
       0.13499375 0.24585772 0.06960023 0.060907334
0000a0 72 3a c7 3c 4c f4 93 3e 59 a6 54 3d 68 03 2b 3e
       0.024319861 0.2889732 0.051916454 0.16700518
0000b0 3e d9 c3 bd 16 e8 37 3e 62 3b 4e 3e 9b 15 2d 3e
       -0.0956292 0.17959628 0.2013984 0.16902773
0000c0 74 ab 94 3d 8d 62 9e 3d
       0.072592646 0.07733641

2.0.weight f4 [50, 784]
000000 8c d8 bb bd 37 b5 08 3d c1 66 0d bd 0e 77 05 be
       -0.091721624 0.033375945 -0.034521822 -0.13033697
000010 32 4f ca bc 77 e1 02 bd d3 68 8f bd 42 48 cf bc
       -0.024695966 -0.0319533 -0.070024155 -0.02530301
000020 93 e3 7f bd d9 d5 2d 3c a7 bd 10 bc 1f df 30 3c
       -0.06247289 0.010610067 -0.008834279 0.010795384
000030 0d 74 c0 bd f7 fc 94 bd 45 34 d2 bb 63 be 4f bd
       -0.09397135 -0.07274812 -0.0064149224 -0.050718676
000040 27 b1 6c 3c a5 62 d9 bd 8b b4 cd 3d 4b 92 96 3d
       0.014446533 -0.10614518 0.100442015 0.07352122
000050 ef bf dc bd 0f e3 c0 bc 97 1d 89 3b 7d 5e dc bb
       -0.10778796 -0.02354577 0.0041844356 -0.006725131
000060 bf f4 2b 3d 07 e1 45 be f2 07 46 bd 65 41 09 3e
       0.041981455 -0.19324122 -0.04834742 0.13403852
000070 d7 65 43 3c 03 54 bb 3d 5a 80 c8 bc 8f 66 48 be
       0.011926136 0.09146883 -0.024475265 -0.19570373
000080 6c 63 a7 bd 31 bf 04 3e 33 f9 ba bc 7f e5 ac 3b
       -0.0817326 0.12963559 -0.022823906 0.0052763815
000090 85 0b 00 bd 04 5b fb ba 64 d7 90 3d c1 96 54 bd
       -0.031260986 -0.0019176905 0.070723325 -0.051901583
0000a0 ed ee 0d bd a8 14 a6 bd 48 18 7d 3d dd 26 8b bd
       -0.034651686 -0.081094086 0.061790735 -0.06794522
0000b0 7a cd 38 bd 62 b8 9c 3d 49 a9 ee 3d 11 bb 96 3c
       -0.045117833 0.07652356 0.11653382 0.018399747
0000c0 a1 5e 2e 3e 03 db 83 bd 28 f3 fd 3d 2a 5e 1c bc
       0.17028286 -0.064382575 0.12399894 -0.009543935
0000d0 3f bb 99 bb b8 b1 4c bd 57 34 36 3d 1f 4f 8f 3b
       -0.004691511 -0.049974173 0.04448351 0.0043734456
0000e0 cd 2b 96 3d 5a e4 e3 bb 0f 83 03 3e 80 b2 d1 bd
       0.07332573 -0.006954712 0.12842964 -0.10239124
0000f0 aa 1a 2b bd 6d b9 cc bd ce d1 a5 bb 8a 10 d2 bc
       -0.041773476 -0.09996305 -0.005060411 -0.025642652
000100 04 5d d2 bd 04 5d d5 3c ac 09 be 3d 9e ea 89 3d
       -0.102716476 0.02604533 0.092791885 0.06734203
000110 ed e6 a1 3c 26 db a6 bd b6 e8 03 3c e8 83 4f 3d
       0.019763434 -0.08147268 0.008051088 0.050662905
000120 06 8a 20 3c ab 70 b3 bc f0 fb 04 3d b9 57 8e bd
       0.009798532 -0.02190431 0.03246683 -0.069503255
000130 95 d6 09 3d 02 f7 c5 bd 05 d6 06 be 02 18 07 be
       0.033651907 -0.096662536 -0.1316758 -0.13192752
000140 7c 41 00 bd ca 94 0f be 67 b9 12 3d fa 85 06 3c
       -0.03131245 -0.14021602 0.035821345 0.008210653
000150 cf 6d 83 bd 07 f7 5c bd cc 5b f8 3d d2 2e 1d bd
       -0.06417429 -0.05394652 0.12126884 -0.03837473
000160 42 4c 0c bd ee 1c ab 3c 72 ad 0c bc 25 0f 99 3d
       -0.034252413 0.020887818 -0.008586274 0.07473592
000170 89 08 37 be 13 0a 96 3d 4e be 84 bb b1 02 37 3e
       -0.1787435 0.0732614 -0.0040510064 0.1787212
000180 73 5d bd bd b6 64 dc bd a7 76 59 bd 90 6e d8 bc
       -0.0924634 -0.107613966 -0.05309167 -0.026419908
000190 5c 57 82 3d 2d 50 d4 bc 32 d2 c8 bd 9a fe df 3d
       0.06364319 -0.025917137 -0.098057166 0.10937233
0001a0 f4 ee 23 3d 9f bb a3 bd af 0e 9f 3d f1 3f d4 3c
       0.040022805 -0.0799477 0.077664725 0.025909396
0001b0 10 a9 8a bd 9a 56 ef 3d 2d e6 82 bd f8 52 bc bc
       -0.06770527 0.1168644 -0.06391559 -0.022988781
0001c0 5a d2 46 3c be ec 8d 3d b2 52 e4 3d b8 80 9c bd
       0.012135113 0.069299206 0.111485854 -0.07641739
0001d0 3e 0a 3e 3e 87 fe 9f bc 7b 40 d3 3d 4b 49 26 3e
       0.18558595 -0.019530548 0.10315033 0.16238897
0001e0 a4 33 dc 3c 3f 8e 36 bd b3 27 0c bd 3f 7b 6f bd
       0.026880093 -0.04456925 -0.034217548 -0.058467146
0001f0 04 dc d3 3d e6 d1 07 3e 30 6c 76 3d 32 93 bf 3d
       0.10344699 0.13263664 0.06016177 0.09354247
000200 24 01 c2 bd be 85 9e 3d 13 b3 b5 3c ca 28 3f 3d
       -0.09472874 0.07740353 0.022180116 0.04666976
000210 4a ce 0c 3d ad e4 d3 3d 58 52 dd bc 73 a7 5c bd
       0.03437642 0.10346351 -0.027016804 -0.05387063
000220 72 0d b1 3d 3c 44 32 3d 51 86 1e 3e a5 b5 fb 3a
       0.086451426 0.043522105 0.15480925 0.0019203915
000230 14 4b 1b 3c 30 da 99 bd ba 42 03 3c 08 f3 2f 3d
       0.009478349 -0.07512319 0.008011514 0.042956382
000240 40 b9 22 3e 2f 23 01 be 0c 14 a3 3d 63 a3 df bd
       0.1589098 -0.12611078 0.07962808 -0.109198354
000250 f1 eb 07 3e ee d3 00 be 27 6f ba 3c fd d4 6b be
       0.13273598 -0.12580845 0.02275808 -0.23030467
000260 5b 67 01 3e 0d 94 87 bd 2a ad 05 3c ac 59 4e bd
       0.12637083 -0.06620035 0.008158961 -0.050378487
000270 3c 28 f6 bd d3 f1 4f bd f6 01 cf 3d cd cc 07 3e
       -0.12019393 -0.05076773 0.10107796 0.13261719
000280 c6 f5 96 3c d5 98 12 3d d7 67 f6 3c c0 b8 b9 3d
       0.01842774 0.035790283 0.030078812 0.090684414
000290 78 73 7c 3d fe 28 80 bc cd 4b 04 3d c5 50 71 3d
       0.061633557 -0.015644547 0.03229885 0.05891492
0002a0 92 99 f8 bd 1a b0 7d bd 31 a8 7a bd e3 7e 17 3e
       -0.12138666 -0.06193552 -0.061195556 0.14794497
0002b0 fd 57 42 bd ff 6f 09 3e af 42 91 3d 8d 97 8d bd
       -0.047447193 0.1342163 0.07092797 -0.06913672
0002c0 b1 d1 45 3d c5 bc 4c be 7a d4 d1 bd 63 0f a1 3d
       0.04829568 -0.19993885 -0.10245605 0.07864263
0002d0 10 9c ce bd af 89 b5 bc be fc d9 bd 70 2e 2e bd
       -0.1008836 -0.02216038 -0.1064391 -0.042524755
0002e0 36 d5 18 be 37 37 20 be 18 ab 95 bd 17 d8 a1 bb
       -0.14925084 -0.15646063 -0.07308024 -0.00493909
0002f0 39 e4 13 3d 2f ff e6 3d 30 97 4d 3c d0 a0 ae bd
       0.036106322 0.11279141 0.012548253 -0.08526766
000300 67 f8 c2 bb 9b aa 62 3d 42 5a 5b 3c 12 49 10 be
       -0.005950022 0.055338483 0.013388218 -0.14090374
000310 af a2 16 bb 74 eb 27 be 0d b2 88 bd c9 31 0a be
       -0.002298515 -0.16398412 -0.066745855 -0.13495554
000320 a9 b9 2c 3c 6a a1 b1 bd 1b 4d c9 bd 49 01 81 3d
       0.010542312 -0.086733654 -0.0982916 0.06299073
000330 5a 4a 8e bc 65 eb 3d bd 11 16 17 be e2 0e 11 be
       -0.017369438 -0.046367068 -0.14754511 -0.14165834
000340 94 11 6d bd b9 12 c0 bc d1 01 8a bd a0 57 b2 bd
       -0.057878092 -0.023446428 -0.06738628 -0.087081194
000350 b2 53 07 bd be 01 bc bd 4d 66 62 bd 28 96 13 bc
       -0.033038802 -0.0918002 -0.055273343 -0.009007968
000360 93 19 e0 bb 21 15 aa 3d ea 25 ac 3c 4f 20 c8 3d
       -0.006838986 0.08304811 0.021014173 0.097717874
000370 7a 2e 96 bd 7d ae 05 be 40 91 1a 3e 56 b2 f8 bd
       -0.073330835 -0.13054843 0.15094471 -0.1214339
000380 66 2c 7e 3d 74 33 c6 bd a3 6f 23 3e 67 be a0 bd
       0.06205406 -0.09677783 0.15960555 -0.07848816
000390 cc 8b 99 3d 65 98 6b 3d 1a 01 42 bd d2 0d 8b bd
       0.07497367 0.05751838 -0.04736433 -0.067897454
0003a0 d7 d6 ea 3d bf b3 a7 bd 72 eb 02 be 68 2f 26 3c
       0.11466759 -0.08188581 -0.12785128 0.0101431385
0003b0 de e0 5a bc 63 7e b2 bc 36 04 56 bd ac a8 21 bc
       -0.013359277 -0.021788782 -0.05225011 -0.009866875
0003c0 c9 53 2d be df 41 b5 bc 97 37 1a be 5c 4e 25 bd
       -0.16926493 -0.022126136 -0.15060268 -0.040357932
0003d0 b2 3c bb bd f8 f1 5a 3c e3 1e 53 bc 3f b1 12 3e
       -0.09142436 0.013363354 -0.012885782 0.14325427
0003e0 31 73 b6 3d 7d f8 07 3e e2 83 05 3d ad e0 50 3b
       0.0890869 0.13278385 0.032596476 0.0031872198
0003f0 f1 4b 10 be c6 c7 b9 3d 4f 3b 35 be 17 7e c3 3d
       -0.1409147 0.09071307 -0.17698406 0.09545534

3.0.bias f4 [50]
000000 0a 7d 40 3d a7 36 17 3e a6 95 4e 3e 5e 87 d2 3d
       0.046994247 0.14766942 0.20174274 0.102797255
000010 ff 71 d4 3d 54 b6 75 3e 32 9b a2 3d 50 44 83 3e
       0.103733055 0.23995334 0.079397574 0.25638056
000020 1d 4c 87 3d 90 f3 b5 3d 69 d5 05 3e 3b d5 64 3e
       0.06606314 0.088843465 0.13069691 0.22346966
000030 5a f2 38 3b dd 1c e4 3e d6 bc e1 bd 91 11 d2 3d
       0.0028220625 0.4455327 -0.11022346 0.10257257
000040 38 13 9a 3d 05 27 15 3e 56 92 33 3e 25 07 8f 3d
       0.07523197 0.14565666 0.17536291 0.069837846
000050 ae 00 7a 3e 5a 2a 84 3d ab 4f 59 3c b1 83 6c 3c
       0.24414322 0.064533904 0.013263623 0.014435695
000060 c4 ac be 3d 7b c5 9f bd 57 8d 2d 3e 05 82 33 3e
       0.09310296 -0.07801338 0.16948448 0.17530067
000070 0b 93 23 3e 26 0b b0 3d 4d 64 86 3d 99 8a cd 3d
       0.15974061 0.085958764 0.065620996 0.10036201
000080 3c 26 56 3d 11 95 7d 3e 09 52 c3 3d 73 81 26 3e
       0.052282557 0.24763896 0.09537131 0.16260318
000090 c0 03 f6 3d 2a e5 5d bc 2c ac 01 3e e5 5c a3 3d
       0.12012434 -0.0135434065 0.12663335 0.079767026
0000a0 3a 17 98 3d 70 f0 d8 3d a4 4e 3b 3e a1 ac 82 3e
       0.07426305 0.10592735 0.18291718 0.2552233
0000b0 c1 ee 9a 3d e4 00 95 3e 70 73 aa 3d ae 90 83 3c
       0.0756507 0.29102242 0.08322799 0.0160602
0000c0 cb 96 6b 3e a8 1a 2e 3e
       0.23006742 0.17002356

3.0.weight f4 [50, 50]
000000 ab 99 60 3d 8a f3 ce 3d e7 29 07 be e5 13 37 3c
       0.05483405 0.10105045 -0.13199578 0.011174177
000010 bc 76 90 bc e1 49 c0 bd cc dd f6 bd 2e 67 d1 bd
       -0.017634742 -0.09389091 -0.12054023 -0.10224758
000020 d4 99 1b be 6f 21 86 3d f0 e6 3b 3e b8 e2 d2 3c
       -0.151954 0.06549346 0.18349814 0.025742874
000030 e8 c2 3f 3e ff 34 1b 3e 53 1e 05 3e bf ee fa bd
       0.18726695 0.15156935 0.12999849 -0.122525685
000040 9f a9 b2 3b d6 73 09 3e b0 20 39 3e 78 42 3e be
       0.0054523493 0.13423094 0.18078876 -0.18580043
000050 5c 7c 67 bc 81 3e 64 3e ed c3 1d bc b7 d4 77 bd
       -0.014128771 0.22289468 -0.009629232 -0.060505595
000060 48 82 d2 bd ad 3e b2 bd a0 8a d2 bd 22 20 c7 bc
       -0.102787554 -0.08703361 -0.10280347 -0.024307314
000070 55 2e 41 be 0c 00 ca bd f9 ee 19 3d 3c 20 eb 3b
       -0.1886533 -0.0986329 0.037581418 0.0071754735
000080 31 71 1e be e4 de 81 3d 57 c6 48 bd 1a e5 1b bc
       -0.15472867 0.06341341 -0.049017277 -0.009515071
000090 f7 92 62 3c 39 dd 13 3c 3e e6 1e bd a4 f1 21 3e
       0.013828984 0.009024912 -0.038793795 0.15814835
0000a0 f4 d4 12 3e 21 12 40 bd a9 62 cd 3d 29 ed 58 be
       0.14339048 -0.04689229 0.100285836 -0.2118422
0000b0 b8 92 9f be fb 44 08 3e ac b6 02 be 99 61 4c be
       -0.31166625 0.13307564 -0.12764996 -0.19959106
0000c0 f3 73 75 be 04 fc 24 3e 20 98 87 bc 15 01 e1 bb
       -0.23970012 0.16111761 -0.016552031 -0.006866584
0000d0 eb c6 1e 3c a6 d0 ab bd 00 9f 23 be 78 2a 61 3d
       0.00969098 -0.08389406 -0.15978622 0.054972142
0000e0 03 1b 8c bd 47 7f d8 bd f6 8b 17 3d ee f6 17 3e
       -0.068410896 -0.10571151 0.03699871 0.1484029
0000f0 48 6f 9e 3c da 6f 5c be e3 d5 72 bd 4e 8a e2 bd
       0.019340172 -0.21527043 -0.05928601 -0.11061536
000100 52 e3 64 3e d1 b5 03 be c1 5b 59 bb 92 56 e2 3d
       0.22352341 -0.12862326 -0.0033166262 0.11051668
000110 97 da 6a 3e ba 69 8a bc 63 3b b6 bb 64 05 9a 3e
       0.22934948 -0.016896117 -0.0055612787 0.30082238
000120 47 46 ef bd c7 b8 33 be 11 bc a8 3d 9b 22 98 bd
       -0.11683326 -0.17550956 0.08238996 -0.074284755
000130 63 e6 41 be 1a 88 34 3d 07 41 88 3d 54 eb 29 3d
       -0.18935542 0.04407511 0.06653028 0.041484192
000140 31 7b 72 bd 68 55 11 bd 09 9a e2 bd 50 ba 9d 3b
       -0.059199516 -0.03548184 -0.11064536 0.00481347
000150 13 d5 20 be 42 a1 52 3e 7a 0a fc bc 1b 3b e2 3d
       -0.15706281 0.20569327 -0.030766714 0.1104643
000160 bc 8a 3e be 3e fd 93 bd b7 2f 47 3e 3f c8 67 3e
       -0.1860761 -0.072260365 0.19451796 0.22634982
000170 42 56 80 3e c3 2f fd 3d d7 ee c7 bd 78 c2 8b bd
       0.2506581 0.123626254 -0.09762352 -0.06824201
000180 71 23 f0 bc 4c fb 8e 3b ec b5 b3 bd a8 48 14 3e
       -0.029313775 0.004363453 -0.08774933 0.14480841
000190 e1 22 ea bd 0c 70 3d be 39 c3 85 bc 21 4a 9e bd
       -0.11432434 -0.18499774 -0.016328441 -0.07728983
0001a0 f4 41 f4 bd 3c e6 eb 3d 72 01 70 3e 27 d0 7e bd
       -0.11926642 0.11518523 0.23438051 -0.06221023
0001b0 3e 2e 19 3d 84 5b 2c 3d a4 40 2c be 64 92 2f 3b
       0.037397616 0.042079464 -0.16821533 0.0026790136
0001c0 05 69 e1 3d f6 f4 27 bd 3d 68 a0 bd 8f 31 80 3c
       0.11006359 -0.041005097 -0.07832382 0.015648631
0001d0 e4 07 99 bd ac 91 e7 bd 85 2b 17 be a0 4f 86 bd
       -0.07472208 -0.113070816 -0.14762695 -0.06558156
0001e0 03 51 b0 bc ab ba 83 3d d6 6b 2a 3d 1b 13 35 be
       -0.021523004 0.064320885 0.041606747 -0.1768307
0001f0 ba b2 0d 3d ea b4 20 bd 97 23 25 be eb a0 b7 3d
       0.034594275 -0.039235033 -0.16126858 0.089662395
000200 3d 32 71 be 50 c6 a4 3d d9 ef 47 bd a7 5e f8 bd
       -0.2355432 0.080456376 -0.04881272 -0.121274285
000210 68 b5 2b be 3f 3a f1 bd 5d 82 9d 3e 25 6b b5 3d
       -0.1676842 -0.11778688 0.30763522 0.08858327
000220 86 c1 1b bb 40 2e c7 39 fe a4 82 be 09 a7 26 3b
       -0.0023766472 0.00037990697 -0.25516504 0.002542915
000230 4c 53 f0 3d 4d 1d a5 bc 05 b9 72 3d 8c fb 17 bc
       0.117346376 -0.020155573 0.05925848 -0.009276282
000240 62 17 11 3e 1c 19 a5 bd 85 4d 1b be 47 41 9e bd
       0.14169076 -0.0806143 -0.1516629 -0.077272944
000250 35 d0 a0 3c 31 2b 84 3b e8 a7 6f bd 8e df 58 be
       0.01963053 0.004033469 -0.058509737 -0.2117903
000260 48 ad 52 3d d3 93 ec 3e c7 dd 2a 3e b9 13 2c 3e
       0.051434785 0.4620653 0.16686164 0.16804399
000270 58 1a 80 3d 00 95 73 3e be 49 61 be 74 da 9a 3d
       0.06255025 0.23787308 -0.22000787 0.07561198
000280 d5 e7 1f be 25 c4 5b bd e0 c5 9e 3d 52 82 7c be
       -0.1561578 -0.053653855 0.077525854 -0.24659088
000290 66 e5 8c bd 81 22 26 be 83 7c 61 bd 4f 2a ea bd
       -0.06879692 -0.162241 -0.055050384 -0.11433851
0002a0 c1 67 10 3d 5c e7 ec 3d c3 42 e8 3c f8 a7 5e be
       0.035255197 0.11567566 0.028352147 -0.21743762
0002b0 40 a5 45 bd ae 12 18 3e 77 1d 84 bd c1 d1 bc 3e
       -0.048253298 0.14850876 -0.064509325 0.3687878
0002c0 06 8b 1d 3e ce 8e 28 3c 02 44 68 bc 7f e2 06 3e
       0.15385064 0.010287954 -0.014176371 0.13172339
0002d0 7c 33 1a 3e bc 90 29 3d bf 8d 13 be 2d a8 42 be
       0.15058702 0.041397795 -0.1440954 -0.19009466
0002e0 81 af ab 3c dc da 2a be 1b 09 35 be 38 76 8c 3e
       0.02095771 -0.1668505 -0.17679255 0.27433944
0002f0 6d f9 12 3e f6 c8 e1 bd 34 30 77 3c 6b 90 d0 bd
       0.14352961 -0.110246584 0.015087176 -0.101837955
000300 54 db 59 3b 64 fe 44 b8 cf c2 64 be 74 97 62 bc
       0.0033242302 -4.696696e-05 -0.22339939 -0.013830055
000310 e0 97 db 3c f8 f3 37 3d 08 ed 35 3e 03 cd 96 3d
       0.026805818 0.0449104 0.17766201 0.07363322
000320 01 12 a2 3d eb a9 9a be 5a e6 53 3e 6d 9e 23 be
       0.0791359 -0.30207762 0.20693341 -0.15978403
000330 cc 7a 74 be 33 ef 17 bd 0e f0 b7 3d a0 99 40 3c
       -0.23874968 -0.037093353 0.08981334 0.011755377
000340 7d 1f 1e be 1b 84 0e 3e 33 65 ab 3c 98 f9 70 be
       -0.154417 0.13917582 0.020922279 -0.23532712
000350 f3 cd 91 bd ae c9 a8 3d 30 40 55 3e 9f db 36 bd
       -0.0711936 0.08241592 0.20825267 -0.04464304
000360 6d 2e cc 3d 24 f0 20 be d8 63 1b 3e 7c d0 0c 3e
       0.099697925 -0.15716606 0.15174806 0.13751405
000370 df 46 5b 3e b7 2c 4b 3e 11 59 18 3e 1b e7 a6 bd
       0.21413754 0.19841276 0.14877726 -0.081495486
000380 97 9f 45 3c be fd c7 3d 38 90 0d 3e 7d 61 66 3d
       0.012061975 0.09765194 0.13824546 0.056245316
000390 28 80 ae 3d 0f 4a 9f be d9 16 aa 3d e1 b0 ac bd
       0.085205376 -0.3111119 0.08305139 -0.084321745
0003a0 66 d7 7b bd ea 38 3c be 14 18 5b 3c e5 17 d8 3d
       -0.061484717 -0.18381086 0.01337244 0.105514325
0003b0 f7 f8 6c 3d 02 b0 83 bd 05 d8 37 be 11 be c6 bd
       0.05785462 -0.06430055 -0.17953499 -0.09704221
0003c0 e9 3a c4 3c c3 0a 8b be 08 a6 47 3d e5 32 8b 3e
       0.023953872 -0.27156648 0.048742324 0.27187267
0003d0 f9 4b 8a 3d ce 5d 44 3b 90 7d 62 3e aa 95 09 3e
       0.06752772 0.0029963139 0.22118211 0.13435999
0003e0 be 1d 0e 3e 49 fb 82 3e d5 03 88 3e 2f 9f 32 3d
       0.13878533 0.2558234 0.26565424 0.04360884
0003f0 b2 42 df bd 46 5b ea bc 73 21 91 be 60 76 07 be
       -0.10901393 -0.028607976 -0.28345832 -0.1322875

4.0.bias f4 [10]
000000 27 02 d5 3d bb 51 4f be bb 47 8a bd 51 e9 2c be
       0.10400801 -0.20246021 -0.06751963 -0.16885878
000010 15 ef 52 3d 62 91 a4 3e dd a8 88 3e 2a b8 52 be
       0.051497538 0.32142168 0.26691332 -0.20578066
000020 e5 8d 1c 3f 09 17 94 3e
       0.61154014 0.28923824

4.0.weight f4 [10, 50]
000000 5e 2e 0a be 72 9a 81 be 0a f5 7b 3d 53 f3 09 3f
       -0.1349425 -0.25313145 0.061512984 0.5388691
000010 f1 64 07 3e 58 54 30 be dd 03 86 3e db 2c 51 be
       0.132221 -0.17219675 0.26174822 -0.20427267
000020 31 6f 33 3e 02 12 be be b8 94 c1 3d 1c 46 15 be
       0.17522885 -0.37123114 0.09452194 -0.14577526
000030 c7 e3 0b bd 2b dd 08 3d ee eb 8a be 5f a1 b4 3d
       -0.034152772 0.033414047 -0.27133125 0.088198416
000040 df 35 b7 be cc 0d a2 3d 1d b9 88 be 62 f1 60 bd
       -0.35783288 0.07912788 -0.2670373 -0.0549177
000050 1c 7d be be 5a 2b 78 3d 1e 36 72 be 2d 62 ef bd
       -0.37204826 0.06058822 -0.23653457 -0.116886474
000060 ce de 6b be 16 b8 2b be f5 17 ea bd 2e 49 63 3e
       -0.23034212 -0.16769442 -0.11430351 0.22195885
000070 8e 2c ce 3e 30 6b cd be 41 31 69 be 79 f2 4a be
       0.40268368 -0.4012084 -0.22772695 -0.19819058
000080 64 ae 54 3e b2 0d e6 bd 74 33 85 bb b8 88 d1 bd
       0.2076965 -0.11233081 -0.0040649716 -0.10231155
000090 a5 84 53 3e ba 24 02 3b 42 d3 97 3e c4 ce cf bc
       0.20656069 0.0019858317 0.29653364 -0.025367148
0000a0 fb 29 e4 bd c3 4c 9e be 2d a6 cb bd 6c 2b de 3c
       -0.1114082 -0.3091794 -0.09943805 0.027120315
0000b0 c3 2f 42 3f 5f 8f ca bd 3b df 0f 3f 18 98 f8 bd
       0.7585413 -0.09890627 0.562 -0.121383846
0000c0 25 3e 5f be e5 62 bf bd 9c d8 f2 bd 83 8f a6 bc
       -0.2180105 -0.093450345 -0.11857721 -0.020332104
0000d0 1f a1 0a 3e 38 87 aa bd 6a fd 0d 3e ac c8 1b 3e
       0.13538025 -0.08326572 0.13866201 0.15213269
0000e0 46 9b 30 be d0 ef 7f be c1 18 cc bd ef 84 12 3f
       -0.17246732 -0.24993825 -0.09965659 0.5723409
0000f0 ea de 95 3d 6d ac af be 5a d3 84 be 47 e8 0e bf
       0.07317908 -0.34311238 -0.25942498 -0.5582318
000100 cd 48 c2 3e 25 ac 5f 3d d4 8c 4d 3f 00 4c ba 3d
       0.37946168 0.05460753 0.8029301 0.09096527
000110 6e b9 6b 3d cd cd bd 3d 42 52 1d bf 79 c5 ca 3d
       0.057549886 0.09267769 -0.6145364 0.09900946
000120 a8 13 18 3d ae f1 d4 bc 73 08 04 be 17 b2 6b 3e
       0.03712812 -0.025994148 -0.12893848 0.23017155
000130 fb b5 d9 be f8 b0 49 be 53 1d 32 be c4 e0 98 3e
       -0.42521653 -0.19696414 -0.17393999 0.29858983
000140 de b6 6e 3f b2 e5 da 3d 3e 32 aa be 29 38 d3 3c
       0.93247783 0.10688342 -0.33241457 0.025783615
000150 8d 6e f6 bd 4d b3 8c bc da 35 b6 be cb f7 1c 3e
       -0.12032805 -0.017175341 -0.3558796 0.153289
000160 48 62 72 3d 5b f4 f6 bd 39 32 2a be 64 60 ed be
       0.05917576 -0.12058326 -0.16620721 -0.46362603
000170 76 59 35 3d b3 a1 e6 3d 5f 7a a3 be 66 3f 11 be
       0.04427477 0.112613104 -0.319293 -0.14184341
000180 13 ee 87 be c4 a8 a5 be 92 e3 f7 3e 5d 28 85 3e
       -0.26548824 -0.3235532 0.4841581 0.26007357
000190 e3 18 98 3e 5c dd 93 3e cb 31 24 be ba f3 c9 bd
       0.29706487 0.2887982 -0.1603462 -0.0986094
0001a0 a3 bd 25 3e ad 4b a2 3e 9b 3f a2 3e 06 0c 9e bd
       0.16185622 0.3169836 0.31689152 -0.07717137
0001b0 ed 33 15 3d c8 08 f1 3e 16 3a da 3d e9 cc 14 be
       0.036426473 0.47077012 0.1065561 -0.14531292
0001c0 50 bf c1 3e 15 ae b2 be e6 13 b3 3e 8a a7 f6 3e
       0.37841272 -0.3489844 0.3497612 0.48174697
0001d0 99 93 df be c1 4b b3 be 35 b1 2c be ba 46 54 bc
       -0.43667296 -0.35018733 -0.16864474 -0.012956316
0001e0 38 87 d0 3d e4 d4 76 bd aa 48 89 be c9 1b c2 3e
       0.10182041 -0.060261622 -0.2681325 0.37911823
0001f0 48 b9 74 be d1 f2 53 3f d5 3f fb be ba f4 32 3e
       -0.23898804 0.82792383 -0.49072137 0.17476168
000200 b8 4b 29 be 28 ce 37 3e 5d 25 4c bd eb f1 8c be
       -0.1653279 0.17949736 -0.04984032 -0.2752832
000210 4c 3c 73 be eb 58 6c be e7 e1 46 3e f5 13 92 be
       -0.2375347 -0.23080795 0.19422112 -0.2853085
000220 26 e8 52 3d d4 ee 20 3e d0 21 3a 3d 29 99 98 bd
       0.051490925 0.15716106 0.045442402 -0.07451088
000230 98 54 44 be 06 f8 23 be 9c 89 5d be 2b 87 b5 bd
       -0.19172895 -0.16012582 -0.21634525 -0.08863672
000240 22 8f 7f 3e 52 e7 b4 bd 0d 73 c2 3c 85 4c a8 3e
       0.24956945 -0.08833183 0.023736501 0.3287088
000250 22 ff b6 be 65 55 97 be ee 2b af bd f2 e3 94 3d
       -0.35741526 -0.29557338 -0.08553301 0.072700396
000260 bb 53 ff bd 6b 46 d4 bd 70 5b 5d be cb fb ef be
       -0.12467142 -0.10364994 -0.21616912 -0.4687179
000270 74 68 a5 bc 8b 00 07 3f 00 4a 14 bd 94 27 97 3e
       -0.020191409 0.52735204 -0.036203384 0.29522383
000280 0e 21 61 3c 38 dd a8 be 82 ad d6 3c 19 3a 65 bd
       0.013740791 -0.32981277 0.026205782 -0.05596361
000290 80 a6 89 3e 34 06 bd 3e e6 25 cf be cc c0 92 3e
       0.26884842 0.36918795 -0.40458602 0.28662717
0002a0 cc 3c ef bd 05 d6 97 bb 6d 3b 15 be 67 01 b4 3d
       -0.11681518 -0.0046336674 -0.1457345 0.0878933
0002b0 ca 5f 4a 3f 0d b5 83 bd b2 06 b9 bc 6e d5 18 3e
       0.7905241 -0.06431017 -0.0225862 0.14925167
0002c0 22 27 cd 3e 65 bc 0e 3e 73 93 3c bd cc 62 1c 3e
       0.40068918 0.13939054 -0.046039056 0.15272063
0002d0 04 14 20 be 9b 32 b8 be 8d 45 b9 3d 77 2d 37 3e
       -0.15632635 -0.3597611 0.09046469 0.17888437
0002e0 38 c0 12 be 9e 35 00 3f ee b6 75 3d ad 3e 9e 3e
       -0.14331138 0.50081813 0.05998891 0.30907193
0002f0 13 c5 5b be 22 50 49 3d bc 19 81 be 0e 52 14 3e
       -0.21461897 0.049148686 -0.25214946 0.14484426
000300 d5 7c fa 3e 3b 7c 5e be 2a 53 c0 bd 5c ed 54 be
       0.48923364 -0.21727078 -0.09390862 -0.2079367
000310 57 6a 00 be 76 00 fe 3e 38 37 50 3d 3b 08 1b be
       -0.12540565 0.49609727 0.05083391 -0.15139858
000320 0f 18 56 3d e5 c2 12 3e 4b 43 02 bd 63 96 23 3d
       0.052269038 0.14332159 -0.031802457 0.03993834
000330 57 0e c6 3e 0f 46 fa be d7 0a e7 3e 42 c6 9b be
       0.38682815 -0.48881575 0.45125458 -0.30424696
000340 3e 67 3c bd fe 9c c8 bd 3b e5 bc 3c 5e 63 8e 3e
       -0.045996897 -0.09795569 0.023058524 0.27810186
000350 b9 2a 49 be 82 d1 a2 be c3 04 a0 be 12 19 f4 be
       -0.19645204 -0.31800467 -0.31253633 -0.47675377
000360 fb bb 2d 3f 97 47 0e be 8f 9f 33 bd fc 17 31 3d
       0.6786496 -0.13894497 -0.04385334 0.043235764
000370 06 bb ec 3e 72 91 f6 3c 6e 0f 5e be 82 28 89 3e
       0.46236438 0.03009865 -0.21685573 0.26788718
000380 a4 54 c3 bd 97 85 bd be fa 87 16 3e 0d 64 3a 3e
       -0.09537628 -0.37015983 0.14700308 0.18202229
000390 65 66 1d be 62 4f 4c be 87 f9 f4 3d e5 c0 fd 3d
       -0.15371092 -0.19952157 0.11961656 0.12390307
0003a0 cf 6b 8f 3e 52 3b 10 be f0 34 7f 3d 19 4e 9c bd
       0.2801194 -0.14085129 0.062306345 -0.076320834
0003b0 8b e4 1f 3f a9 a9 94 bd ea 1d 90 be e0 d3 4e be
       0.62458104 -0.072589226 -0.28147823 -0.20198011
0003c0 13 4a b0 3b 6d f2 9d 3e 4d 16 cc bd d7 ad 00 3f
       0.005379924 0.3084902 -0.09965191 0.5026526
0003d0 bd 2e 14 bd fe 26 3e 3e 96 ed 6c be 33 0b 84 be
       -0.036177386 0.18569562 -0.23137507 -0.25789794
0003e0 5d 0b f3 be 35 a6 cb be a5 e8 4b bd 4b a6 24 be
       -0.47469607 -0.39775243 -0.049782414 -0.1607906
0003f0 f1 92 71 be 4a 04 86 3d 88 4e 1b bd 97 8e 61 3e
       -0.2359121 0.06543787 -0.03791669 0.2202705
